experiments/delivery_date_nn_2layer.pt (torch, 11925 bytes, 5 tensors)

net.0.weight f4 [32, 17]
000000 a1 fa a9 3e d1 e7 60 3e d9 45 0c be 0c 50 b8 3e
       0.33199027 0.21963431 -0.1369852 0.3599857
000010 a6 99 2c be f5 a3 95 bc 61 7d 06 be ec e6 ab 3d
       -0.16855487 -0.018266657 -0.13133766 0.08393654
000020 bd ec 03 3e 87 fc 19 be 7c fc 22 3e 79 d3 a4 3d
       0.12883277 -0.15037738 0.15916628 0.08048148
000030 c7 f1 34 3e ee d2 09 be ef 6c 5a 3e fb ff 8f bd
       0.17670356 -0.1345937 0.21330617 -0.07031246
000040 36 1d d8 3e af fb 2b 3e dd b0 66 be 01 45 aa 3d
       0.42209786 0.16795228 -0.22528405 0.08313943
000050 71 eb 07 be 59 42 13 be 9b a2 37 be 8f 83 19 3e
       -0.13273408 -0.14380778 -0.17933123 0.14991592
000060 69 cf 9a be d4 fd b8 be 61 ad 5b bd d4 90 42 be
       -0.30236366 -0.36131155 -0.053632144 -0.1900056
000070 10 ab a8 3d 18 dc 99 be 2f b6 66 3e bc 00 b2 be
       0.082357526 -0.3005073 0.22530435 -0.34766185
000080 14 f3 df 3e e9 80 d9 3d 9f 76 72 3d 43 69 47 3e
       0.4374014 0.10620291 0.059195157 0.19473748
000090 9f c9 6d 3d e3 46 af 3e 4b e4 17 3e a4 10 b2 bd
       0.05805361 0.3423377 0.1483318 -0.0869458
0000a0 46 44 da 3d 9f f2 11 be df 96 e9 3c 44 50 96 3e
       0.106575534 -0.14252709 0.028514324 0.29358113
0000b0 90 8f 19 3e 5f e9 20 bd c5 3b e6 3d de 11 16 be
       0.14996171 -0.03928506 0.11241869 -0.14655253
0000c0 3f 33 89 3e 52 bf 7e be 12 ec a6 be cf d5 3f 3d
       0.2679691 -0.2487767 -0.32601982 0.046834763
0000d0 39 0c a4 be f0 4f 8a 3e b1 3b 3b 3e 5e 88 61 3e
       -0.32040575 0.27014112 0.18284489 0.22024676
0000e0 01 a6 35 3d a8 a7 65 bc a6 f9 3a 3e ab 43 e8 be
       0.044347767 -0.014017023 0.18259296 -0.45364127
0000f0 45 56 91 3d 68 cc 6b be 48 d7 37 3e 64 b1 0e be
       0.07096533 -0.23027194 0.17953217 -0.13934857
000100 08 89 3b bd c3 c1 9c bd fc 7c cb 3e ac f5 34 be
       -0.04578498 -0.076541446 0.39743793 -0.17671841
000110 55 a9 0b bd b8 72 e3 bd ca 6f 83 3e 6f 40 e0 3d
       -0.034097034 -0.11105865 0.25671226 0.1094979
000120 21 24 bf 3e f8 04 1f be b7 af 3e be dd 7c 54 be
       0.37332252 -0.15529239 -0.18621717 -0.20750757
000130 af 2d a2 be 6f 9f a8 3d fb 85 e6 3d 4c 31 6b 3e
       -0.3167548 0.082335345 0.112560235 0.22968024
000140 c7 c5 1e be e0 45 8c be 25 34 92 3e ee cc 89 bd
       -0.15505134 -0.2739706 0.28555408 -0.0672854
000150 23 e7 92 3e 51 b3 d2 3d e4 f0 4d 3e 77 af 8d be
       0.28691968 0.10288108 0.20111424 -0.27672932
000160 ff af 3b be 67 48 86 3e ae 15 13 3c 63 03 2d 3b
       -0.18328856 0.26227114 0.008977337 0.0026399724
000170 b9 bb 30 3e 9e ca 05 3e de 39 16 be d5 e2 8d be
       0.1725911 0.13065574 -0.14670512 -0.27712122
000180 f5 0d 8c 3e 1f 0e c0 bd 22 b2 9a be 8b 34 c5 be
       0.27354398 -0.093776934 -0.3021403 -0.3851665
000190 29 90 82 be 8c 9f 2c 3e c9 fa ef 3d 6b 29 78 be
       -0.2550061 0.16857737 0.11717755 -0.2423455
0001a0 41 ec 68 bc c8 b9 51 be c0 f3 d3 be 65 7f 20 be
       -0.014216484 -0.20481026 -0.41396904 -0.15673597
0001b0 81 46 26 be c2 41 96 be 71 64 43 3e ce 6a fa 3c
       -0.16237833 -0.29347044 0.19081284 0.030568507
0001c0 90 ab 0a 3d 75 f9 81 be 8a c2 6b be 13 68 9f be
       0.03385502 -0.25385633 -0.2302343 -0.3113409
0001d0 8a b1 a2 3d b4 43 b4 be 71 18 3d be 9d 1b 70 bd
       0.07944019 -0.35207903 -0.18466355 -0.058620084
0001e0 ea dc 09 3d f7 c6 18 be f5 18 d1 3d 56 41 8f be
       0.033657946 -0.14919649 0.10209838 -0.27979535
0001f0 ea 9b 55 be ed 5b 26 be d1 b5 2e be b6 3d d1 be
       -0.20860258 -0.16246004 -0.17061545 -0.40867394
000200 22 54 88 3e 37 60 c4 bd ea 81 85 3e ea 12 65 3d
       0.26626688 -0.09588664 0.2607568 0.05592624
000210 c9 d5 b2 be 14 dc 99 3e 9a a3 8c bd 1a 08 9b bd
       -0.3492873 0.3005072 -0.06867142 -0.075699046
000220 13 51 a3 bd ed b9 b0 be ca 77 00 3e e0 63 a9 bd
       -0.07974448 -0.3451685 0.12545696 -0.08271003
000230 bf 4e 46 3e c8 e2 88 be 36 4f 65 3e 0d 56 a0 be
       0.19365977 -0.2673552 0.22393498 -0.31315652
000240 5f fa 7e be 9f 06 5f 3d 9a 14 eb 3d 0f 41 84 3e
       -0.24900196 0.054449674 0.11478539 0.25830886
000250 f6 fb 7f 3e 27 9c ce be 6a 93 14 3e da 1a 5e be
       0.24998459 -0.4035351 0.14509359 -0.2168993
000260 e4 2d 8a bd c0 ac 36 bd e5 66 8d 3e f8 1a 93 be
       -0.06747034 -0.04459834 0.27617565 -0.28731513
000270 91 78 84 3e 7d 6a 41 3e d2 0b 32 3d 79 ad 90 bd
       0.25873235 0.18888278 0.043468304 -0.07064337
000280 e2 92 89 3e 71 e7 4b 3c e9 76 51 3d 08 47 a6 be
       0.26869875 0.012445317 0.051138792 -0.32476068
000290 79 8d 24 3e ef 94 8c bd 1a cb 9d be 85 92 cb 3e
       0.16069593 -0.06864344 -0.30819017 0.39760223
0002a0 05 d9 34 3d 18 91 3f be 4d 43 05 be 78 6f 69 bd
       0.04415228 -0.18707693 -0.13013954 -0.05699107
0002b0 b7 9e 47 3e 2b cc 4c bd fc 04 ae be 70 41 21 be
       0.19494139 -0.049999397 -0.33988178 -0.15747619
0002c0 b1 a9 82 be 7d 53 6e 3d b9 0c 12 3e 2d d9 53 be
       -0.2552009 0.05818509 0.14262666 -0.20688315
0002d0 d3 7b de 3c d9 84 43 3e ae 3d bc 3d 13 55 b7 bd
       0.027158653 0.19093646 0.09191452 -0.089517735
0002e0 70 97 96 3e f0 25 c0 3e 7b 3e a3 3e 12 e4 95 3d
       0.29412413 0.37528944 0.31883606 0.073188916
0002f0 f7 11 10 be 70 7c ad 3d a5 e9 48 bd 98 0f 86 be
       -0.14069353 0.08471 -0.049050946 -0.26183772
000300 ac 23 3c 3e d5 38 87 3e d0 0d 15 bc 64 aa 2a be
       0.18372983 0.26410547 -0.009097531 -0.16666561
000310 1b 0f 0e 3d cf 5c a4 3b db fe ee 3d c3 7d 99 3d
       0.034682374 0.0050159465 0.116697036 0.0749469
000320 60 ba eb be d5 eb 5a be 67 4c 3b 3e d3 b4 f8 3d
       -0.4604063 -0.21379025 0.18290864 0.121438645
000330 be e8 f4 3d ea 1e 55 be 00 6c 6d be 8e d6 86 be
       0.119584545 -0.20812574 -0.2318573 -0.26335567
000340 3b ff d5 bd 99 9c a8 3d bf 74 50 3e a8 57 cf 3d
       -0.10449072 0.08232994 0.20357035 0.10124141
000350 00 0d f0 be de d6 de bd 38 a2 51 bd 4e fd 9f 3e
       -0.46884918 -0.108808264 -0.051180094 0.31247944
000360 9f 7b ce 3c 71 0b 8b be 9c 06 53 3e 46 7f 3c be
       0.025205432 -0.27157167 0.2060799 -0.18407926
000370 7d 6f 77 be 58 47 a3 3e bd 05 25 be 4d 01 c4 3c
       -0.24163623 0.31890368 -0.1611547 0.023926402
000380 8b 45 ab be 90 bb c5 3e 29 6e 40 3e f5 56 f4 3d
       -0.33451495 0.3861966 0.18792023 0.11930648
000390 47 4b 91 be 66 96 f3 be 77 9a 2e be 83 79 4d 3e
       -0.28377745 -0.47575682 -0.17051111 0.20065884
0003a0 5a 6a 3d 3e c8 51 55 3e c3 6e 28 bd 59 2d 67 3e
       0.18497601 0.20831978 -0.041121256 0.22575893
0003b0 46 ee a3 bd f8 13 80 be d3 56 71 bd 53 11 9a be
       -0.080044314 -0.25015235 -0.058920693 -0.30091342
0003c0 31 f7 4a 3e c3 a8 f0 bd d5 8c 1b bd d4 a9 41 be
       0.19820859 -0.11750939 -0.037976105 -0.1891244
0003d0 e3 bb 09 3c a4 38 8c be b1 2f cb be 6e 4e ef 3d
       0.008406612 -0.27386963 -0.39684823 0.11684881
0003e0 c4 5c 0d be 65 16 63 3e 3a 07 c7 bd c6 9e d4 be
       -0.13804919 0.22176512 -0.09718175 -0.41527385
0003f0 f7 e2 a2 bd 0e 09 68 be 51 0f cf bd 0a fd 06 be
       -0.07953446 -0.22659704 -0.10110343 -0.13182464

net.0.bias f4 [32]
000000 db 28 fc 3e 3c b3 8b 3e 93 30 c7 3e ec 21 f4 3e
       0.4924992 0.27285182 0.38904247 0.4768213
000010 4f e5 b2 3e 31 58 25 3e 17 71 1e 3e 6c 03 ae 3e
       0.34940574 0.16146924 0.15472828 0.33986986
000020 02 70 30 3e 28 01 c0 3e a5 cd 3a 3e c2 31 dd 3d
       0.17230228 0.37500882 0.1824251 0.10800506
000030 8d 3d bc 3e 53 94 9a 3e 30 69 b1 3e 1c ae 02 3f
       0.3676571 0.30191287 0.34650564 0.5104692
000040 d8 31 c9 3e 09 6e ef 3e 00 7f 8e 3e 7f e1 ae 3c
       0.3929584 0.46763638 0.27831268 0.02134776
000050 ab 11 82 3d a7 ed 20 3d 52 13 33 3d be ad e0 3d
       0.06351026 0.039289143 0.043719597 0.10970639
000060 20 83 f1 3c d8 55 88 3c b4 f1 bd 3d 40 48 14 3d
       0.02948147 0.016642496 0.09274617 0.036201715
000070 df be a9 3d e8 c5 a5 3e a3 9f e2 3e 61 ed 24 3e
       0.08288359 0.32377553 0.44262418 0.16106178

net.3.weight f4 [32, 32]
000000 fa 18 52 bd c5 0b a1 3d bb f0 db bd a1 95 cc bd
       -0.05129335 0.07863573 -0.10739275 -0.09989477
000010 0e 97 bd 3d d7 ac 24 be 1a e9 3d b9 17 d6 0e 3e
       0.09257327 -0.16081558 -0.00018111282 0.13948856
000020 ef 86 76 3c 88 c1 f1 3c 27 16 e3 bd a8 32 f2 bb
       0.015046819 0.029511228 -0.110882096 -0.0073912926
000030 c4 7b eb bb 2d 82 e9 3c 87 fd 57 3d 64 b0 0a 3e
       -0.007186385 0.028504455 0.052732017 0.1354385
000040 75 35 0f be 7f 94 95 bb ac 71 c1 bd 1a ae 12 be
       -0.13985236 -0.0045648213 -0.09445509 -0.14324227
000050 48 e1 85 bc 43 53 23 be 87 31 d3 3d 62 64 c2 3b
       -0.016342774 -0.1594973 0.10312181 0.0059323767
000060 af 0c e4 bd 2c e5 a7 3d e3 d9 2c be 4f 85 9e bd
       -0.11135232 0.08198008 -0.16879992 -0.0774027
000070 01 2f 37 bd 08 ad 2c be ec b4 fd bd 23 06 9e bc
       -0.04472256 -0.16862881 -0.12388024 -0.019290036
000080 b2 d4 9e 3e 42 86 b6 3e b4 86 88 3e 9f 1d e5 3d
       0.3102165 0.35649306 0.2666527 0.111872904
000090 fa ce bc 3d d0 4f a2 3e 5e fd 44 3e 2e b2 31 3e
       0.09219165 0.31701517 0.19237277 0.17353126
0000a0 4a ca 1e 3e f8 af 40 3d c8 1e e0 3d f0 51 96 3e
       0.15506855 0.047042817 0.10943371 0.29359388
0000b0 8a 0f d6 3d 08 33 0b 3e 20 be c5 3c 42 d0 b2 3d
       0.104521826 0.13593686 0.02413851 0.08731128
0000c0 4e a6 44 3e da cf a2 3d 8e 6f 11 3e 35 89 6d 3e
       0.19204065 0.07949801 0.14202711 0.23196872
0000d0 59 49 3d bd 72 59 34 3e e8 f1 7e 3d 6c b5 95 3d
       -0.046212528 0.17612246 0.06224242 0.07309994
0000e0 b3 f2 88 3e 78 56 93 3e 6c 75 9d 3d 43 99 6d 3d
       0.26747665 0.28776908 0.07688412 0.05800749
0000f0 7b f3 40 3d 8d fc b9 3d d8 6a bf 3b 76 bc d2 3d
       0.0471072 0.09081373 0.005841594 0.10289852
000100 3e 7a 03 3d c6 f5 4c be 82 c1 eb 3d 99 fc a2 3d
       0.032099 -0.2001563 0.11511518 0.079583354
000110 4d 06 4a be 46 8b 9c bd 20 e3 b1 3b 88 6f ac bd
       -0.19728966 -0.07643752 0.0054286867 -0.084197104
000120 eb a0 69 bd e2 c9 bc bd d8 f5 cd 3d a5 b5 c7 bd
       -0.05703823 -0.092181936 0.100566566 -0.09751443
000130 6d 34 f9 3d 45 fb 31 bc b7 5c 90 bc e9 3e f9 3d
       0.121682025 -0.01086313 -0.017622335 0.12170202
000140 f1 64 07 bd 90 45 f9 bd 3f f7 98 bc cb 0e e0 3d
       -0.03305525 -0.12171471 -0.018672584 0.109403215
000150 d6 0b 0e be c5 34 21 3c 9b a6 60 be c4 6e 7f 3d
       -0.13871703 0.009839241 -0.21938555 0.062361494
000160 59 7b a1 3d 39 d4 93 3c da d0 94 3d 9e 97 c2 bc
       0.07884855 0.018045532 0.07266398 -0.023753937
000170 70 fb 36 3d 11 25 32 be 02 4b 8a bd da 66 9f 3d
       0.044673383 -0.17396952 -0.06752588 0.07783289
000180 72 ad 27 3e b4 fe c8 3a 02 6c 03 be 9a cc 78 3d
       0.16374758 0.0015334697 -0.1283417 0.060742
000190 e5 6f bf bd 33 8b 59 bd 88 17 48 be 56 55 c4 bc
       -0.09347514 -0.053111266 -0.19540226 -0.023966473
0001a0 01 f3 13 3e dd 6d 5e bc 0b da 05 be 72 0f a3 3d
       0.14448167 -0.013575998 -0.13071458 0.0796193
0001b0 1e b3 48 bd f9 49 20 3e 00 42 1a be 4d f4 ba bd
       -0.048998944 0.15653218 -0.1506424 -0.09128628
0001c0 fa cd 41 be 54 cb b4 bd c9 19 dc 3c 6d b0 08 3e
       -0.1892623 -0.08827844 0.026867764 0.13348551
0001d0 46 9c 20 3d 23 af d9 3d e4 06 b4 3b 31 5c f5 3d
       0.039211534 0.10629108 0.0054939855 0.11980475
0001e0 7f 92 59 3d 90 a6 ec 3d b3 63 9b bd 88 ef 25 3e
       0.053118225 0.11555207 -0.075873755 0.16204655
0001f0 31 d5 fb 3c 6a ed a8 bd 6d 47 d1 bd e6 7e fe bd
       0.030741306 -0.08248408 -0.102187015 -0.12426548
000200 0e f2 2c bc cd 42 3b be 69 e3 22 3d 39 35 6c 3b
       -0.010555757 -0.18287201 0.039767656 0.0036042465
000210 1a 45 3c be f2 6a f6 bb 35 30 86 bd 3d 7b 31 3d
       -0.18385735 -0.007520073 -0.065521635 0.04333042
000220 53 aa 87 3d 02 8b 65 be 20 35 c5 3d 5c d7 bc 3d
       0.06624284 -0.22416309 0.096292734 0.09220764
000230 46 a1 c3 3c 3a 86 46 be c2 9c d5 bd fe 7a 98 bd
       0.023880612 -0.19387141 -0.1043029 -0.07445334
000240 66 1d b9 bd 1c 0a 64 3d 89 50 8e 3c 12 e5 97 3d
       -0.090388104 0.055673704 0.017372387 0.074167386
000250 d4 3b da bd 38 2f 72 bc 01 e0 01 3d 82 cf 44 be
       -0.106559426 -0.014781766 0.031707767 -0.19219783
000260 36 56 48 be f5 ce 14 be 2b be 8d 3d fb 3b 45 be
       -0.19564137 -0.14532073 0.06921037 -0.19261162
000270 5a f7 32 be b5 2c a1 3d 07 82 39 3d 10 4f ac 3d
       -0.1747717 0.07869855 0.04529002 0.084135175
000280 42 fe 4f 3d f4 ae 76 3d 42 2a 7b 3e 19 5c bd 3e
       0.05077959 0.060225442 0.24527839 0.36984327
000290 0b 2f 9c 3e e5 07 49 3e 64 7d 41 3e 07 c7 a8 3e
       0.3050464 0.19631918 0.18895489 0.32964346
0002a0 4d ea 4c 3c 44 91 e4 3d 6e b5 96 3e e1 88 59 3c
       0.012507034 0.1116052 0.29435295 0.013277263
0002b0 d4 74 50 3d f2 cf 8c 3e 8d 3e 5f 3e 2d b4 7b 3e
       0.050892666 0.275024 0.21801205 0.2458045
0002c0 e4 0c 05 3e d8 33 43 3e 32 e5 a7 3e f5 8d 70 3d
       0.12993199 0.19062746 0.3279205 0.05872913
0002d0 3e 8c ff 3d b2 f8 52 3e 4e ad 56 3d 6f fd aa 3e
       0.12477921 0.20602682 0.05241137 0.3339648
0002e0 f8 fa f8 3d 60 6b eb 3d b3 ab ab 3d fc 89 4f 3c
       0.121572435 0.114950895 0.083823584 0.012667175
0002f0 23 82 ea 3c 89 8e 8d 3e 46 b6 51 3e 92 17 3e bc
       0.028626507 0.27647808 0.20479688 -0.011602299
000300 b6 ac 81 3d 4f e7 b0 3e 1d fe 59 3e b0 8b 86 3e
       0.0633177 0.34551474 0.21288343 0.26278448
000310 e3 63 bc 3d 31 d3 a8 3d ad 43 d1 3d 21 c3 04 3e
       0.091987394 0.082434066 0.10217986 0.12965061
000320 39 0e fd 3b 1e c4 42 3e 8e 7d 3a 3e 7c 0c ca 3d
       0.0077226427 0.19020125 0.18211958 0.098656625
000330 fb 86 2a 3e c6 dd 94 3d 74 67 51 3e c9 60 70 3e
       0.16653053 0.072688624 0.2044962 0.2347442
000340 27 3e c4 3d b0 4d 8e 3c c3 99 80 3e 3c 41 4e 3e
       0.09582167 0.017371029 0.2511731 0.20142072
000350 94 c3 09 3d 7c cf 90 3e c9 65 ba 3d 33 24 89 3e
       0.033633783 0.28283298 0.09101445 0.2678543
000360 40 5d 8f 3e 32 36 24 3b 6c 2f 6e 3e 0c d8 f6 bc
       0.28000832 0.0025056717 0.23260278 -0.030132316
000370 13 4e bf 3d cf 27 13 3e cc a4 2f 3d 50 59 9e 3e
       0.09341063 0.14370655 0.042881772 0.30927515
000380 cf 69 06 3e 80 cf 74 3e 2d 28 6f bc 40 d5 97 3e
       0.131263 0.2390728 -0.014596981 0.29654884
000390 78 1b fd 3d 92 69 a7 3c bf 9e 11 3e 67 9d 6b 3e
       0.12358755 0.020436082 0.14220713 0.23009263
0003a0 a4 e0 86 3e 34 88 8f 3d 4c 78 89 3d ee 99 18 3e
       0.26343262 0.070084006 0.06712398 0.1490247
0003b0 7a 0e 36 3e 65 90 48 3e 49 76 77 3e ff 80 07 3e
       0.1777896 0.19586332 0.24166216 0.13232802
0003c0 5f 15 8f 3e c2 55 9a 3e f2 a7 dc 3d b4 98 8b 3e
       0.27945992 0.30143553 0.107742205 0.2726494
0003d0 f6 bc 43 3e 4f b6 86 3e 7a ba 7c 3d f4 4a 78 3d
       0.19115052 0.26310965 0.061701275 0.060618356
0003e0 f8 64 10 3e 7a 1e 1a 3e 2d 93 60 3e 29 95 48 3c
       0.14101017 0.15050688 0.21931143 0.012242594
0003f0 6f f8 89 3e d7 b4 c7 3d 44 bb 7b 3e 12 97 01 3e
       0.26947352 0.09751289 0.24583155 0.12655285

net.3.bias f4 [32]
000000 b0 d3 33 be 71 07 99 3e 92 ff 4d be 01 7b a3 bd
       -0.17561221 0.2988849 -0.20117024 -0.079824455
000010 16 0c 06 bd 62 a6 ae 3e ae 29 0b 3e a9 a0 76 3e
       -0.03272637 0.34111315 0.13590118 0.24084724
000020 67 78 80 3e ce 0c 90 3e 15 ee ea bc ef 45 96 3e
       0.2509186 0.2813477 -0.02867798 0.2935023
000030 cd 1d 05 be e1 de 09 be 18 d9 a2 3e d9 1a 34 be
       -0.1299965 -0.13463928 0.31806254 -0.17588367
000040 0a f7 31 3e c6 40 3e bd 6a 75 cc 3e 0d a3 56 bd
       0.17379394 -0.04644849 0.3993333 -0.05240159
000050 8a 94 8a 3d f1 7e a7 bd f8 cc 86 3e cb df 11 3d
       0.06766613 -0.08178509 0.26328254 0.035613816
000060 db 46 a6 3e 14 fe 86 bd f1 10 87 3e 78 27 47 be
       0.32475933 -0.0659143 0.26380113 -0.1944865
000070 c5 b4 99 3e 46 36 7a 3e 4c 27 91 3e 3c a7 da 3d
       0.3002073 0.24434766 0.28350294 0.10676429

net.6.weight f4 [1, 32]
000000 37 4a 08 bd 31 a9 6e 3e 2b 1b f7 bd e2 ce 0a be
       -0.0332739 0.23306729 -0.12065729 -0.13555482
000010 62 03 0a be 96 59 32 3e c4 40 99 3e 2f 1d 50 3e
       -0.13477853 0.17416987 0.29932225 0.20323633
000020 b7 c1 45 3e e1 ae 56 3e d4 75 ae bd 39 63 65 3e
       0.19312178 0.20965149 -0.08518568 0.22401132
000030 07 74 55 3c 1a 29 b5 bd c5 8b 9e 3e 66 76 dc bd
       0.013028151 -0.0884573 0.3096601 -0.1076477
000040 3d 98 47 3e e4 ab 10 be 75 32 26 3e c3 21 b2 bd
       0.19491668 -0.14128071 0.16230185 -0.08697846
000050 ee de 70 3e 09 56 95 bd 8d 79 8b 3e 86 d1 15 be
       0.23522541 -0.072918005 0.27241173 -0.14630708
000060 0d 8c 8f 3e 4b 0f e3 bd 45 6e 8c 3e 6d a8 36 be
       0.28036538 -0.11086901 0.2742788 -0.17837687
000070 75 da 36 3e 67 5c ef 3d 7c 96 8f 3e 28 ff 80 3e
       0.17856772 0.11687546 0.28044498 0.2519467
